models/real_value_metrics/self-play-1/model_ep_best.pt (torch, 37899 bytes, 7 tensors)

conv1.weight f4 [14, 12, 5, 5]
000000 f3 40 52 be f5 cc ae bd f2 6c 0c c0 d1 e1 07 c0
       -0.20532589 -0.08535186 -2.1941495 -2.1231577
000010 90 79 5c 3d 4e 1b a1 bf 1d 58 1c c0 15 f8 96 bf
       0.05382687 -1.2586458 -2.442878 -1.1794459
000020 d2 e6 4e c0 95 66 80 3f fa f1 8f bd 6c da ed bf
       -3.2328382 1.0031306 -0.07028575 -1.8582282
000030 90 7b 41 3f c4 27 a0 bf a0 34 de be 79 70 7d bf
       0.75579166 -1.2512136 -0.43399525 -0.98999745
000040 74 55 fa bf 46 cf 7e bf ee 08 81 3f 8b d8 3f bf
       -1.9557328 -0.99535024 1.008085 -0.74939793
000050 4c f3 1e bf 51 a2 6b 3f 86 6f e6 be b5 59 c2 bf
       -0.6208999 0.9204455 -0.4500696 -1.5183626
000060 0a d8 89 bf 84 7a dc bd 86 ab a2 3f 75 37 52 3f
       -1.0769055 -0.107655555 1.2708595 0.8211587
000070 fa e1 70 3d 06 67 9b bf 0d 91 94 bf 58 5b 65 3f
       0.058809258 -1.2140815 -1.1606766 0.89592505
000080 25 c5 9f 3f 75 a9 16 c0 34 91 1a 3f 2c f2 26 be
       1.2482039 -2.3540928 0.6037781 -0.16303319
000090 d6 51 f6 be d5 d6 45 40 3a 96 37 40 5b ac 9a bd
       -0.4810931 3.0912373 2.868544 -0.075524054
0000a0 7c 40 04 3f f3 77 22 40 25 f3 d1 3f 53 f4 96 3f
       0.51660895 2.5385711 1.6402327 1.1793312
0000b0 04 15 26 3f e0 58 16 3f 2a 06 ba 3f b2 65 9f 3f
       0.6487582 0.5872936 1.4533131 1.245291
0000c0 5e 98 19 40 ca fe c2 3f e6 24 0c bf 8b 34 ac 3c
       2.3999248 1.5234005 -0.547438 0.021021148
0000d0 2b 2d e7 3e 88 59 54 3f 43 09 d2 be 50 d2 a2 bf
       0.45151648 0.82949114 -0.4102269 -1.2720432
0000e0 24 33 6e bf 2f 1c 9d bf f0 a6 22 bf 5f 46 26 c0
       -0.93046784 -1.2274226 -0.63535976 -2.598045
0000f0 d9 ca 6e bf c0 a5 89 3c cd 26 49 3f 73 00 44 3f
       -0.9327827 0.016802669 0.7857483 0.76563185
000100 01 86 91 bf 7b b8 24 c0 8d f2 41 bf e0 eb c4 3d
       -1.136902 -2.5737598 -0.7576073 0.09615302
000110 c2 d7 cb 3e fe 46 c6 3e 02 8e 0e bf 01 e0 9e be
       0.39813048 0.38726038 -0.55685437 -0.31030276
000120 6e 4e 98 3e ac 0b 21 3f cf fd d2 3e 56 b6 ba 3e
       0.29747337 0.62908435 0.41209266 0.36467236
000130 83 e1 35 be 1e e5 f8 3f 60 fe bf 3f 8a 8d c4 3f
       -0.17761807 1.9444921 1.4999504 1.5355694
000140 91 f8 31 3f 55 b7 0b c0 2f 5a 78 bf 67 0b 13 c0
       0.6951991 -2.1830647 -0.9701261 -2.297571
000150 cb ac f3 bf 15 06 2d c0 cc a0 05 c0 57 24 c5 3b
       -1.9037107 -2.7034962 -2.0879393 0.006016295
000160 f7 f4 02 40 28 ff 56 3d 11 6d 0d bf 7a e8 b7 bf
       2.0462015 0.05248943 -0.5524455 -1.4367821
000170 2e 47 d8 3e b5 44 89 3f 47 1d 01 40 8b 41 70 3f
       0.42241806 1.0724093 2.017412 0.9385001
000180 2d 07 31 40 98 64 37 40 51 2e 0b 40 db d4 4c 3f
       2.766063 2.8655148 2.174702 0.8001229
000190 66 eb 9f be af fa ec bd 1f bc c5 be 7c 63 f1 be
       -0.31234282 -0.115712516 -0.38620088 -0.47146213
0001a0 f1 5f 94 3e 1a 05 b8 3f b0 db b0 3e b8 19 c6 3f
       0.28979447 1.4376557 0.34542608 1.5476599
0001b0 f3 60 92 3e 03 af 78 bf 4d 29 6e be e0 5c de be
       0.2858959 -0.97142047 -0.23257942 -0.43430233
0001c0 ae b3 48 3e 49 ab d5 3f 90 3c cd be bb 62 1f be
       0.19599792 1.6692897 -0.40085268 -0.15565006
0001d0 9c 28 99 3d 8e 2c 26 3c 3f 2b db be 0f b2 54 3f
       0.07478449 0.010142459 -0.42806432 0.83084196
0001e0 51 ea db 3f 30 b2 4e 3f e2 a9 56 3f c7 f0 e5 be
       1.7180883 0.8074064 0.8385297 -0.4491026
0001f0 5a 9f 2e 40 dc 19 9b bd f3 51 87 40 ef e6 11 bf
       2.728476 -0.07573292 4.2287536 -0.56993
000200 61 75 9d bd d8 36 07 3c 35 ee 1f 3e b1 ea 58 3f
       -0.07688404 0.008252822 0.15618213 0.8473311
000210 1b d0 d9 bf 74 61 a2 bf b7 8c 93 bf 09 6f 32 c0
       -1.7016634 -1.268599 -1.1527318 -2.788027
000220 ce 6c 34 3e 78 9e 42 3f a3 b9 ee bf 6a c7 3e bf
       0.1761963 0.76023054 -1.8650402 -0.7452303
000230 1a 5e e7 3e 6e 9f 63 40 de ca 83 3f bf 29 6c bf
       0.4518898 3.5566058 1.0296285 -0.922512
000240 34 d3 35 c0 fa 37 d6 bf 52 87 e4 3f 6a f6 c9 3f
       -2.8410158 -1.6735833 1.7853796 1.5778325
000250 05 dc d6 3f 9b ff 27 40 7c b2 6d c0 1c ed 16 bf
       1.6785895 2.624976 -3.7140188 -0.5895555
000260 80 2e 6b bf 09 c9 33 c0 40 36 02 c0 08 a9 d5 bf
       -0.9186783 -2.8091452 -2.0345612 -1.6692209
000270 57 37 33 c0 62 c6 5a c0 b4 2a 48 3e d3 93 3e bf
       -2.8002527 -3.4183583 0.1954754 -0.7444431
000280 02 66 11 c0 25 ee f9 bf fc 35 25 bf 45 db f1 bf
       -2.271851 -1.9525801 -0.645355 -1.8895041
000290 30 5e 13 c0 c2 bf bd bf c5 07 d3 be ee a2 02 bf
       -2.3026237 -1.4824145 -0.41216865 -0.5102986
0002a0 09 b7 cd bf b1 43 0b be 8d 84 44 c0 91 4f 85 c0
       -1.6071483 -0.13600041 -3.0705903 -4.1659627
0002b0 73 ca c7 bf 05 60 c8 bf 01 8f e2 bf 46 7a a4 be
       -1.5608658 -1.5654303 -1.7699891 -0.32124537
0002c0 79 a2 2e be 8a a9 9c be 0c 94 82 be f6 cb c4 be
       -0.17054166 -0.30598098 -0.25503576 -0.3843686
0002d0 5a 73 8b be 1d ac 0f bf 06 84 ae be 40 87 c4 bd
       -0.27236444 -0.56122 -0.340851 -0.095961094
0002e0 57 c6 0a bf 52 0a a7 be a4 e2 ce be 7f 7b 66 be
       -0.5420889 -0.3262506 -0.40407288 -0.22508048
0002f0 f5 b5 d0 be e7 63 3a be e1 47 d2 bd aa 30 84 be
       -0.40763822 -0.18202172 -0.10267616 -0.25818378
000300 02 67 ac bd 30 80 16 be 43 f5 d2 bd 8f e8 9b be
       -0.08418085 -0.14697337 -0.10300686 -0.30450866
000310 ff 60 00 bf 1e 13 8a be 69 d4 14 bf 73 28 a0 bf
       -0.50148004 -0.2696771 -0.5813661 -1.2512344
000320 7a 97 47 bd 06 95 d2 bc 18 0c bf bc 68 5c ef bc
       -0.048728444 -0.025705826 -0.023321196 -0.029218867
000330 97 d5 eb bc be 23 5f 3d c7 22 d9 bc 04 91 0a 3d
       -0.028788371 0.054477446 -0.026505841 0.033829704
000340 ae bf 53 3d 78 55 0b 3c c0 12 d9 3c 7c ea 74 bc
       0.051696472 0.008504264 0.026498199 -0.014948484
000350 20 a6 1d bd 1a 4c 38 3d 1c ac 95 3c 07 81 0f bd
       -0.038488507 0.04499445 0.018270545 -0.03503516
000360 00 2e 37 39 b5 85 38 bd b3 d0 38 bd b4 94 e7 3c
       0.00017469376 -0.045049388 -0.045120906 0.02826915
000370 c0 d8 5d 3d be 3c a3 bc 74 b3 10 3d c0 61 a0 3b
       0.054161787 -0.019926425 0.03532739 0.004894465
000380 8c d3 69 bd b4 b2 6d c0 55 80 23 c0 ad 34 32 c0
       -0.057086512 -3.7140322 -2.5547078 -2.784465
000390 30 34 10 c0 43 f9 8e bf d6 4b 27 c0 4a 9c 86 c0
       -2.2531853 -1.1169819 -2.6140037 -4.2065783
0003a0 63 47 fa be dc 29 07 c0 e6 95 cf bf 80 7f 9c c0
       -0.4888259 -2.11193 -1.621762 -4.890564
0003b0 cc 64 7f 3d 1a 8a 96 3d 20 c2 8e bd bd 90 f8 be
       0.062351987 0.073505595 -0.0697062 -0.48547927
0003c0 8c ec 49 bf 7c 51 d7 bf cd 30 60 be 9b 2f d6 bf
       -0.78876567 -1.6821742 -0.21893616 -1.6733278
0003d0 bb a5 22 bf 98 1b 04 c0 df d5 0d be fa cb 0d c0
       -0.63534135 -2.0641842 -0.13851117 -2.2155747
0003e0 86 f7 2d bf d7 5f 6b 3c 71 bd 4f bd b0 3a ca 3c
       -0.67955816 0.014366112 -0.050717775 0.024686188
0003f0 53 de f4 bc 80 2e 14 3c fc 27 ad bc cd ae 31 bd
       -0.029891169 0.00904429 -0.02113723 -0.043379594

conv1.bias f4 [14]
000000 25 9f b7 3f 12 2e 87 3c 98 dc 3d bf 4b 85 67 bf
       1.4345442 0.01650146 -0.74164724 -0.90437764
000010 bb 1b 1b bf 6b 1d bc be 4f 50 84 bf 91 5d 0c bf
       -0.6058919 -0.36741194 -1.0337008 -0.5483027
000020 c9 e5 d6 bf 18 1d 9a be be 39 4a bf a4 6d 88 bf
       -1.6788875 -0.30100322 -0.7899436 -1.065846
000030 9d e5 03 bf 58 76 ad bf
       -0.5152224 -1.3551741

conv2.weight f4 [8, 14, 5, 5]
000000 89 fc 7a 3e 16 8f fd bf ff 57 3f c0 fa 7d e8 bf
       0.24510397 -1.9809291 -2.9897459 -1.8163445
000010 8b cc f6 3e fc 42 27 be 23 3f a0 be 6a 6b 25 bf
       0.4820293 -0.16334146 -0.3129817 -0.64617026
000020 5e 96 9f bf cc bb 02 3f 03 39 c1 3e 50 fe fc 3e
       -1.2467763 0.51067805 0.3773881 0.49412775
000030 af 5f 3d 3f 75 cf 5f 3f 60 21 f8 3e 67 e3 9d 3e
       0.73974127 0.8742593 0.48462963 0.30837557
000040 41 7e 0c 3f 9b a1 41 3f 8b fe 41 3f 22 88 e8 3e
       0.5488015 0.75637215 0.75779027 0.4541636
000050 f1 48 fe 3e 17 e6 2f 3f e5 53 36 3f 90 cd 57 3f
       0.49665025 0.68710464 0.7122176 0.8429804
000060 bd ff 77 3f 4d 30 d5 bf 3f 34 83 bf 24 92 1d be
       0.968746 -1.6655365 -1.0250319 -0.1538778
000070 78 c5 27 3f f9 76 26 bf f9 74 48 bf 7c bc 69 bf
       0.6553569 -0.6502529 -0.78303486 -0.9130323
000080 7e 52 2d bf b2 70 87 3f 14 f1 c5 3e 2b e7 f6 bd
       -0.67704 1.0581267 0.3866049 -0.120558105
000090 9d 42 79 3d d6 2e 3c bf f2 7e 56 3f 88 fd 16 3e
       0.060854543 -0.73508966 0.83787453 0.14745152
0000a0 62 69 01 bf 32 15 d3 3d d8 b7 21 3f e1 db af bd
       -0.50551426 0.10306777 0.6317115 -0.085868604
0000b0 ec 9f aa bf de 3e 31 bf b3 6a 5e be 34 4b 56 3f
       -1.3330054 -0.6923655 -0.2172039 0.837085
0000c0 ad 27 95 bf f5 a4 db bd 6b 3c 9d 3f c9 31 91 3e
       -1.1652733 -0.107248224 1.2284063 0.28358296
0000d0 44 b6 de 3e 56 1b 24 bf 42 ca 1a 3f 87 c3 12 3f
       0.43498433 -0.6410421 0.6046487 0.573296
0000e0 bd 61 4f 3f be 60 15 bf 94 94 32 bf 4c c3 f1 bd
       0.8100851 -0.5835074 -0.6975796 -0.11804828
0000f0 b7 99 ec 3e d6 8a 52 bf 06 75 d9 bd 83 ff 26 3e
       0.46211025 -0.82243097 -0.106180236 0.16308407
000100 61 6e b9 3e ae 92 f7 3c ba 04 1a bf 76 bc 0b c0
       0.36217025 0.03022131 -0.6016346 -2.1833777
000110 af e3 47 bf 76 c0 5f bf 2e 3a 2b c0 61 ca 7a c0
       -0.7808179 -0.8740305 -2.675426 -3.9186022
000120 9f f7 b9 bf 58 f3 34 c0 d2 47 03 c0 f9 7b 2c bf
       -1.4528693 -2.8273525 -2.0512586 -0.6737667
000130 ee ae ee bf 79 8a 7f bf 1c 4a eb bf 5f de 4d 3e
       -1.8647134 -0.9982067 -1.8381991 0.20104359
000140 23 e6 91 3f 04 03 ac 3e 56 a6 1b 3f 28 d6 e3 3d
       1.1398357 0.3359605 0.60800683 0.111248314
000150 79 70 55 be 4b 46 6d bf 04 65 9d bf 84 a9 6c bd
       -0.20843686 -0.92685384 -1.2296453 -0.05777885
000160 89 10 8b bd c4 c9 c8 3e 9c f4 39 bf f2 d9 9e 3f
       -0.06790263 0.39216435 -0.7263887 1.2410262
000170 7f 9b 14 be 46 14 53 3d 0c 0b 11 be 95 fe 27 bf
       -0.14512442 0.051533006 -0.1416437 -0.65622836
000180 0c 8f db bf 5b 0c 0b 3f dc 94 65 bf fd 9a 4a bf
       -1.715303 0.5431573 -0.89680266 -0.79142743
000190 fe 27 52 bf 80 66 05 3f ab b2 bc bf b0 37 28 3f
       -0.82092273 0.5210953 -1.4742025 0.6570997
0001a0 4c 14 8e 3f a9 b9 84 bf 2b 76 2e 3e 56 36 ae bf
       1.1099944 -1.0369159 0.17037265 -1.3610332
0001b0 a3 29 2e be 6a 9a fc be 08 6e f4 bd 65 3f 06 3f
       -0.1700807 -0.4933656 -0.11935049 0.5244048
0001c0 06 6e 4d bf 69 74 fe be 79 2d 85 bf a3 45 77 bf
       -0.8024601 -0.4969819 -1.0404502 -0.9659063
0001d0 9a 35 43 bf 9f f2 78 bf aa 7a 88 be 3f 8d 2f 3f
       -0.76253664 -0.9724521 -0.26656085 0.685749
0001e0 ce 3e 28 bf c8 89 3e bf ae 15 d8 3f b3 4b da 3f
       -0.6572083 -0.7442899 1.6881616 1.7054352
0001f0 93 30 51 3e db 96 3d bf a5 9d 25 bf 5f 48 c1 3d
       0.20428686 -0.7405831 -0.6469367 0.09437632
000200 a0 72 69 bf 10 30 ac be 5b 74 7a bf 42 c2 34 bf
       -0.9119053 -0.3363042 -0.97833794 -0.70608914
000210 0b 92 cb 3e d8 0a d8 be 94 c6 f4 3e 99 ac 7e bf
       0.3975986 -0.42195773 0.47807753 -0.99482113
000220 4c ac 9a be 2d af 85 bf 11 b6 a2 bf 7f 30 19 bf
       -0.30209577 -1.0444084 -1.2711812 -0.59839624
000230 e4 89 09 c0 78 b8 e4 bf 9a 42 9b bf 0c 34 a0 bf
       -2.1490412 -1.7868795 -1.21297 -1.2515883
000240 37 51 04 c0 f6 b0 72 bf 9d a9 9c 3e 73 32 9a bf
       -2.067457 -0.9480127 0.30598155 -1.2046646
000250 3d c3 fa bf 61 31 82 bf ff 8d 50 bf fe ed a5 be
       -1.9590832 -1.0171319 -0.8146667 -0.32408136
000260 01 24 72 be fa 27 05 bf 94 86 35 be cf a5 ad 3d
       -0.23646547 -0.52014124 -0.17727119 0.08478891
000270 08 0f a9 be 6a f8 fd be cf 5f 96 be dd c3 9c be
       -0.3301928 -0.49603587 -0.2936997 -0.30618182
000280 9d cd 8b bf a2 3d 31 bf 2d 7b 50 bd bf d5 b6 be
       -1.0922123 -0.6923467 -0.05089872 -0.3570995
000290 ed 01 39 bf 6c cf 9f bf ff 28 26 c0 8f 57 2c bf
       -0.72268564 -1.2485175 -2.5962522 -0.67321104
0002a0 51 fc c5 bf 29 62 0d be 3d 36 8b bf c0 71 a7 be
       -1.5467626 -0.13806976 -1.0875927 -0.32703972
0002b0 cf 2e a7 bf 6e b5 01 c0 02 45 c2 bf f5 8e c9 3e
       -1.306116 -2.0266986 -1.517731 0.3936688
0002c0 2e 73 72 bf d4 bb db bf b4 70 22 bf 66 f8 43 3f
       -0.94707 -1.7166696 -0.6345322 0.765509
0002d0 a4 c9 b5 be 56 7b ed 3e cb f1 34 bf 74 db 4f 3f
       -0.35505402 0.4638316 -0.70681447 0.81194234
0002e0 b5 04 44 3f 5c 1b 03 bf 4b 62 15 bf c8 a8 12 3f
       0.7656968 -0.5121362 -0.5835311 0.5728879
0002f0 cf 59 2d 3e db 46 0c 3f 1c 1e 89 bf 1b 1a 17 be
       0.1692879 0.54795617 -1.0712314 -0.14756052
000300 42 f2 39 3f 45 1c 43 bf bf 47 89 bf 94 09 0e c0
       0.7263528 -0.7621501 -1.072502 -2.2193346
000310 af ad a4 bf cf 62 19 c0 fc d4 01 bf f9 db 58 3e
       -1.2865504 -2.3966558 -0.50715613 0.21177663
000320 0a e6 6e be b2 0e 8d 3f 09 00 fe 3e 86 dc f4 bd
       -0.2332994 1.102011 0.49609402 -0.11956124
000330 32 e0 a8 3e 1b c7 91 be f0 04 38 3e 0e 02 b8 be
       0.32983547 -0.28472218 0.17970634 -0.35939068
000340 c9 6d 9d bf ef 8e cb be f2 d3 d5 be bb 5e d1 be
       -1.2299129 -0.39757487 -0.41763264 -0.40892586
000350 04 3f a8 be f7 9b f7 be d3 94 a9 be 16 09 b0 bf
       -0.32860577 -0.4836118 -0.33121356 -1.3752773
000360 e2 de 46 be 4d db 78 c0 be 5e 74 be 75 9f 51 c0
       -0.1942096 -3.888385 -0.23864266 -3.2753575
000370 1c ef fe be 61 72 3d bf 49 c2 82 c0 32 c9 14 c0
       -0.497918 -0.74002653 -4.0862164 -2.32478
000380 ef 41 78 bf 2d a5 a5 be af 83 d0 bf 05 61 af be
       -0.96975607 -0.32352582 -1.6290187 -0.34253708
000390 1c cf 8a be 8c f2 2a 3f 77 92 7a 3d a7 33 c7 bb
       -0.27111137 0.6677635 0.061174836 -0.0060791555
0003a0 c4 d7 2d 3e ab 43 1e bd e3 78 54 bf 4b 5e 33 3f
       0.1697684 -0.038638752 -0.8299696 0.70065755
0003b0 76 09 7e 3f 98 97 cf 3e 07 cd dc 3e 66 42 fa bd
       0.99233186 0.40545344 0.43125173 -0.12219696
0003c0 31 b5 90 bf bf e8 4a bf 4f 75 2f be 79 35 86 3d
       -1.1305295 -0.7926139 -0.17134593 0.06553168
0003d0 87 28 98 bf 56 ba 23 c0 8d 99 69 3f 65 e5 b4 be
       -1.1887368 -2.558248 0.91249925 -0.35331264
0003e0 92 dc 8e bf 7c 59 38 3e 10 c5 40 3f a0 84 8b bf
       -1.1161063 0.18002886 0.75300694 -1.0899849
0003f0 70 37 98 bf d3 04 12 3f 1c f7 81 be 93 bb cb 3f
       -1.1891918 0.5703861 -0.25383842 1.5916618

conv2.bias f4 [8]
000000 1b 78 d9 3f 9d 03 5e be 4a 81 58 bf e1 c1 86 be
       1.6989778 -0.21681066 -0.8457228 -0.26319793
000010 8d 10 a4 3f 11 fc b4 bd fa 62 e1 3e 0a ca e8 be
       1.2817551 -0.0883714 0.44020826 -0.45466644

fc1.weight f4 [24, 72]
000000 b7 1f 2a be 85 97 72 be c2 77 19 bf 94 cd 0b bf
       -0.16613661 -0.23690613 -0.5994836 -0.5461056
000010 c5 af ca be c9 03 89 be c9 a7 e0 be c0 ec 6a bd
       -0.39587227 -0.267607 -0.4387801 -0.05735469
000020 cb 05 a0 be c2 e2 7e be a5 fc 30 bf 43 c7 3a bd
       -0.3125442 -0.24891189 -0.69135505 -0.045600187
000030 e7 a3 83 be 12 c5 3e 3b 2f 1f 2a bd 27 04 c6 bd
       -0.25710985 0.0029109162 -0.041533645 -0.09668761
000040 da bc 3a 3e 99 e4 6b 3d 49 58 ac 3d 95 2b ad bd
       0.18236104 0.057591055 0.084152766 -0.08455578
000050 42 a3 bd bb d4 ac 01 3d 49 92 7a 3c 9e e3 28 bd
       -0.005787284 0.031658962 0.015293666 -0.041232698
000060 e4 38 30 bc c0 10 7c bd 76 0a 28 be 7a 19 eb bd
       -0.010755751 -0.06153941 -0.1641024 -0.11479469
000070 66 44 0c be 0f 05 40 be ea 81 08 bf 73 0b 6f be
       -0.13697967 -0.1875193 -0.53323233 -0.23344211
000080 df 7a f9 be f1 fe b2 be c1 da 34 3e e6 7e dd bd
       -0.48726556 -0.3496013 0.17661573 -0.108152196
000090 3d 76 f0 be e9 e5 71 be a5 0e 8c be a7 28 0f be
       -0.4696521 -0.2362286 -0.27354923 -0.13980351
0000a0 e7 56 7c be 6c 8d e9 be 28 2e fa bd e8 34 ee 3d
       -0.24642526 -0.4561571 -0.12215835 0.11631185
0000b0 64 89 cc be bb 16 da 3d 9d 7e ce 3c b7 5c e8 3d
       -0.3994857 0.10648867 0.025206858 0.11345809
0000c0 c1 94 8a 3d fb c6 a0 3c c3 4d 99 3d 93 e3 c1 3c
       0.06766654 0.019626131 0.07485535 0.023668086
0000d0 7b 12 c2 bd d5 0a a9 3d 76 b3 ec be 3f bd 13 3b
       -0.09476181 0.08254019 -0.46230668 0.002254322
0000e0 05 b4 9b be 96 3a 15 be d9 2b 99 3d 5d 64 ed be
       -0.30410782 -0.1457313 0.074790664 -0.46365634
0000f0 24 4a 52 be 22 0b 85 bc 1f f8 05 be 5e 4c 00 3e
       -0.20536095 -0.01624066 -0.13082932 0.12529132
000100 4f 8d a3 bd be 28 8f bd 49 d3 0c bf 2e 47 0e 3e
       -0.07985937 -0.06990193 -0.55009896 0.1389434
000110 83 7f 5a be 5a c4 bc be cd 41 5e bd 73 44 20 bf
       -0.21337704 -0.36868554 -0.05426197 -0.62604445
000120 84 47 5c bd 24 a9 3b be d0 cd 76 be 01 e9 d9 bd
       -0.05377914 -0.18326241 -0.24101949 -0.10640145
000130 9c 7f 69 bc d7 fd a9 bc 72 d5 3c be 9a f1 23 be
       -0.014251616 -0.020750923 -0.18440798 -0.16010132
000140 36 66 8c be 08 5b 6f bd 67 ba a0 bd 30 36 85 bd
       -0.2742173 -0.058436424 -0.078480534 -0.06504476
000150 b3 ad e2 3d 8e 26 0e bc 25 6f 34 3d 03 3a e6 bd
       0.11068287 -0.008676184 0.04405131 -0.112415336
000160 1e 92 fc 3d b9 3e f5 bd b2 f5 92 3c c9 89 cf 3d
       0.12332557 -0.11974854 0.017939422 0.10133702
000170 e2 e6 0f 3d 7d cf 49 be e7 7f 46 be 05 4b ec bd
       0.035132296 -0.19708057 -0.19384728 -0.11537746
000180 c4 63 24 be 3c 7b c3 3d b7 e8 4e bd 45 93 6d bc
       -0.16053683 0.095449895 -0.050514903 -0.014500444
000190 d0 0c 9f 3c 9f 4f 62 be e6 79 bf bd 1d 9d b3 bd
       0.01941529 -0.22100686 -0.09349422 -0.08770201
0001a0 9d ab 26 3d 51 46 ec 3c fd 77 0f be 76 f2 8a bc
       0.040691007 0.028842123 -0.14010616 -0.016961318
0001b0 bf 0b 70 be 21 0d 8d be 09 27 4a bd 21 fc f5 bd
       -0.23441981 -0.2754908 -0.049353633 -0.120109804
0001c0 c8 f1 43 3c 44 20 6c be 5f d1 29 bd 46 32 ac bc
       0.011959501 -0.23059183 -0.041459437 -0.021020066
0001d0 83 0a 29 be e9 4e 90 bd 44 fe 14 3c 40 6d 1d 3d
       -0.16507916 -0.07046301 0.009093825 0.038434267
0001e0 ad 50 12 bd 18 71 d6 3d 87 62 4a 3d 5b 43 26 3d
       -0.03572147 0.1047079 0.04941037 0.04059158
0001f0 3b 31 e8 bc 55 11 c0 bd 79 ef 45 bd 5b 3a dc bd
       -0.028343787 -0.09378306 -0.048324082 -0.10753318
000200 b1 31 00 bc e7 b9 b9 bd 73 05 6b be e5 5b ac 3c
       -0.007824347 -0.09068661 -0.22951297 0.021039912
000210 d2 6f 9c ba 40 ef d9 bd 6a 1b fb 3d 92 90 b5 bd
       -0.001193518 -0.106413364 0.12261088 -0.08865465
000220 a5 55 c0 bd 88 a8 50 be 3d 8c 81 bd 6e ad a7 bd
       -0.093913354 -0.2037679 -0.063255765 -0.08187376
000230 2f 4d 71 bd 8b 46 c0 3d 6e 36 8e 3d 80 f0 e4 bd
       -0.0589115 0.09388455 0.069439754 -0.11178684
000240 75 bf 87 bd 55 2a d5 be e5 4a 84 be cc bc e5 bd
       -0.066283144 -0.4163386 -0.2583839 -0.11217651
000250 89 3f 1c be 09 f2 e9 bd c3 9c cf be 3c bc 15 be
       -0.15258612 -0.11423118 -0.40549287 -0.14622587
000260 fa 7a b2 be cf 77 10 3d 32 64 95 3d 2d 67 a2 be
       -0.3485945 0.03527051 0.07294501 -0.31719342
000270 a2 26 77 bd d9 b2 fd bd 0e 87 8b bc 22 67 e5 bd
       -0.060339577 -0.12387628 -0.017032173 -0.11201312
000280 85 f4 2b 3c fd d3 64 be 72 99 4a 3d 00 c1 45 bc
       0.01049531 -0.22346492 0.049462743 -0.012069941
000290 86 82 72 bd 1c 16 05 be 6b 78 11 bd 14 89 c9 bc
       -0.059206508 -0.12996715 -0.03551523 -0.024601497
0002a0 d8 e7 e1 bd 18 25 25 3c f2 ea 24 be c3 30 d7 be
       -0.11030549 0.010079645 -0.1610525 -0.4202939
0002b0 28 90 86 3c c0 cc ae bd ee f4 88 be e2 23 68 3d
       0.016426161 -0.08535147 -0.26749367 0.056674846
0002c0 6e bc 9c bd 3e f0 34 3d 3d 8b 8d 3b 52 23 56 be
       -0.076531276 0.044174425 0.004319577 -0.20911911
0002d0 56 d1 49 bf 19 15 bc be 4e 7e 17 be b5 92 22 be
       -0.78835046 -0.36734846 -0.14794275 -0.15876277
0002e0 0f 28 b7 be 62 00 86 be 2f 5c 88 3e 9d 4e d6 bd
       -0.3577275 -0.26172167 0.2663283 -0.10464213
0002f0 3c cc a9 be af fd 39 3d e8 d6 b1 3d 58 0c cf bd
       -0.3316363 0.045407947 0.08683568 -0.10109776
000300 9d ec 65 3d 58 6b e3 3d 95 8a de 3c e4 f5 e9 3d
       0.056133855 0.111044586 0.02716569 0.11423853
000310 60 71 c6 bc 15 27 d2 bd 4a 62 93 be 62 9e 83 3c
       -0.024223983 -0.102613606 -0.28785926 0.016066734
000320 a9 97 06 be 3b 68 db 3c 5e 9e bb bc 1e 60 fb 3c
       -0.13143791 0.0267831 -0.022902664 0.03068548
000330 82 ee 31 3b 08 62 9e bc ce aa 84 be b3 88 c8 be
       0.0027150218 -0.019333854 -0.25911564 -0.39166793
000340 81 e1 d3 be cb 85 e2 be 0a f1 15 bd 70 96 54 be
       -0.41382983 -0.442427 -0.036606826 -0.20760512
000350 43 c0 d6 bd 86 64 b1 bd 23 c2 7b bd 1c c1 1d bd
       -0.1048589 -0.086617514 -0.06146444 -0.03851424
000360 73 1b c6 bd 8f 8d 12 bd eb 42 1b be 11 99 1f be
       -0.09673204 -0.035779532 -0.15162246 -0.15585734
000370 5b 38 1c bd eb 87 62 bb 9f 46 89 be 59 a9 be bb
       -0.038139682 -0.0034565877 -0.26811692 -0.0058185277
000380 b6 c7 9b bd bc 1c 67 3d 81 79 25 be c1 32 93 3d
       -0.07606451 0.056423888 -0.16159631 0.07187415
000390 2f 48 b5 bd 1c e3 1f 3c 0a 8f 87 bb d0 47 9b 3c
       -0.088516586 0.009758737 -0.0041369246 0.018955141
0003a0 46 17 57 bd 8d 17 01 bf e4 6b 34 3c 97 6c e6 bd
       -0.05251243 -0.5042656 0.011012051 -0.112511806
0003b0 c1 c1 2b bd 39 22 3e 3d 53 21 fd bd 91 d1 f8 3b
       -0.041932825 0.046419356 -0.12359872 0.0075933416
0003c0 4a e0 33 3d 5c 98 09 be c5 c4 94 3d bd 9a 80 3b
       0.04391507 -0.13437027 0.07264093 0.0039246962
0003d0 2a 66 17 be 09 9e 84 bd 12 08 e0 bc 62 48 40 be
       -0.14785066 -0.06475455 -0.027347598 -0.18777612
0003e0 85 50 07 bf b3 ae 3b be 29 a0 14 bd bf 02 72 be
       -0.5285724 -0.18328361 -0.036285553 -0.2363386
0003f0 c9 b6 6f be 83 ca 8b be c0 09 5b be 3b 1e cb bd
       -0.23409571 -0.27302942 -0.21390438 -0.099178754

fc1.bias f4 [24]
000000 c5 25 da be 60 5a 66 be ed 6b 4c bd ac 2b 1b c0
       -0.4260694 -0.22495413 -0.049907614 -2.4245405
000010 a8 ff 1c c0 43 53 21 c0 c9 54 72 be 60 d6 c6 be
       -2.453104 -2.520707 -0.23665155 -0.3883543
000020 61 2e 36 3f f7 a0 ea be 48 8d 97 bb e6 b7 d8 3f
       0.7116452 -0.4582593 -0.0046249963 1.6931121
000030 79 b8 0e be 89 2a b3 3f 8a 65 93 be 41 ea 80 3e
       -0.13937558 1.3997356 -0.28788406 0.25178722
000040 f4 64 93 be 46 48 4f bd 76 97 86 be c8 e0 92 be
       -0.2878796 -0.050606035 -0.2628743 -0.2868712
000050 4f 93 5f 3d 38 f3 8b be ff bb bf be 9c 9b 81 be
       0.054583844 -0.27334 -0.37448117 -0.25314033

fc2.weight f4 [1, 24]
000000 89 97 2a 3e db c2 23 3e 4b 44 05 bd 2c e0 ff bc
       0.16659369 0.159923 -0.032535832 -0.031234823
000010 6f 26 95 bd 67 73 a5 3c b7 34 80 3e a1 50 6c bc
       -0.07282721 0.02019663 0.25040218 -0.01442352
000020 60 f4 9f 3d a1 3d fc bd 60 cf 91 3d dd 10 bd bd
       0.07810283 -0.12316442 0.07119632 -0.09231732
000030 76 3d 76 3e dd 4b 87 bd 7b 92 3e 3d e6 03 74 be
       0.24046883 -0.06606267 0.046526413 -0.23829612
000040 f0 ff fb 3d 54 f0 db 3d 54 42 4c 3e c2 c3 aa 3d
       0.123046756 0.10739198 0.19947177 0.08338119
000050 a9 47 f6 bc 71 05 34 3e f8 82 10 3e 25 65 86 3c
       -0.030063467 0.175802 0.1411246 0.016405651
